wifi_traffic_dataset/aggregated_global_model.pt (torch, 3728 bytes, 4 tensors)

conv1.bias f4 [16]
0	0xbcf30bf0	-0.029668778
1	0xbefe2958	-0.49640918
2	0x3c80258c	0.015642904
3	0x3d8a9190	0.06766045
4	0xbee35aa9	-0.44405106
5	0x3d5b3ec2	0.053526647
6	0x3f158e12	0.5841991
7	0xbe44c245	-0.19214733
8	0xbea2032d	-0.31643048
9	0xbf1690b2	-0.5881454
10	0xbf484028	-0.78222895
11	0xbf1af379	-0.6052776
12	0x3e96fecb	0.29491267
13	0x00000000	0.0
14	0xbe5627d4	-0.2091363
15	0xbc854a18	-0.016270682

conv1.lin.weight f4 [16, 18]
0	0xbe00b08e	-0.1256735
1	0xbd45dac6	-0.04830434
2	0xbe922196	-0.2854125
3	0x3de66112	0.112489834
4	0x3dd338ca	0.10313566
5	0x3cabba64	0.020962901
6	0xbdfe44f4	-0.124154955
7	0xbe8a28f2	-0.26984364
8	0x3e859186	0.26087588
9	0xbeb10c98	-0.3457992
10	0x3e0d69f5	0.1380995
11	0xbe323ab0	-0.174052
12	0xbe4f8a96	-0.2026771
13	0x3d39aa26	0.04532828
14	0xbe801cd8	-0.25022006
15	0x3d6481f6	0.055788003
16	0x3d4b915a	0.049699165
17	0xbeb145dc	-0.3462361
18	0x3f80c647	1.006051
19	0x3f8dc93a	1.1077034
20	0x3ed9c91a	0.4253624
21	0x3e07f8a0	0.13278437
22	0xbf139df6	-0.57662904
23	0xbe0a8f7d	-0.13531299
24	0x3f8733d8	1.0562696
25	0x3f3a3772	0.7274085
26	0x3f8b9b9e	1.0906866
27	0x3e89a034	0.26880038
28	0xbe9b119f	-0.3028688
29	0xbd72dff8	-0.059295624
30	0x3d2ae84c	0.04172544
31	0x3e815a24	0.25264084
32	0x3dd259ba	0.1027102
33	0x3b1ff3f1	0.0024406875
34	0xbd9f9944	-0.07792905
35	0xbc1e2a07	-0.009653575
36	0x3da6f310	0.08151829
37	0x3e2f1052	0.1709607
38	0x3d2831b2	0.04106302
39	0xbe18dcea	-0.14928022
40	0x3d352b4a	0.044230737
41	0xbebc4d50	-0.36777735
42	0xbf0e27da	-0.5552956
43	0xbf11c1b0	-0.5693617
44	0x3e584954	0.21121722
45	0x3d550a68	0.052011877
46	0xbef6f522	-0.48233896
47	0xbd32ae7e	-0.04362344
48	0x3e35b48e	0.17744657
49	0x3f0a4b12	0.540208
50	0x3e12eee2	0.14348939
51	0x3dc29790	0.095015645
52	0xbea27e14	-0.31736815
53	0xbeba580c	-0.363953
54	0x3e11319c	0.1417908
55	0x3d0566de	0.032568805
56	0xbee559e2	-0.44795138
57	0x3e3ef8d4	0.18649608
58	0x3e6d94dc	0.23201317
59	0x3e49c50c	0.19704074
60	0xbedfa766	-0.43682402
61	0xbd9f9626	-0.077923104
62	0xbeb35338	-0.35024428
63	0x3e057e0e	0.13036367
64	0xbe63136c	-0.22175378
65	0xbcf99028	-0.030464247
66	0x3d52df8c	0.051482722
67	0x3ec57f5e	0.38573736
68	0xbeb0ea78	-0.34553885
69	0x3c355fbc	0.011070188
70	0xbefd74d0	-0.49503183
71	0xbdce8e4c	-0.10085735
72	0x3e2b6af6	0.16740021
73	0x3dc43b7c	0.09581658
74	0xbe9ffc62	-0.3124724
75	0x3ed699ef	0.41914317
76	0xbe695456	-0.22786078
77	0xbc89c1b2	-0.016815994
78	0x3f59244e	0.8482102
79	0xbe664ad0	-0.22489476
80	0x3e6ae478	0.22938716
81	0xbe4c87fe	-0.19973752
82	0xbf0ac385	-0.5420459
83	0x3e46171c	0.19344753
84	0xbe9e2ab0	-0.30891943
85	0x3dba986e	0.09111105
86	0xbce55cef	-0.027998416
87	0xbec4dec6	-0.38451213
88	0x3e09382a	0.13400331
89	0x3e5961e2	0.21228746
90	0x3e1a8d9c	0.15093082
91	0x3e21cc52	0.15800598
92	0x3e875462	0.26431566
93	0xbe5947b2	-0.21218756
94	0x3e4516ae	0.19246933
95	0x3ebaa814	0.36456358
96	0xbd1cb500	-0.038258553
97	0x3e974202	0.29542547
98	0x3d53ae2e	0.051679783
99	0x3de70f0c	0.11282167
100	0xbdef72ee	-0.11691843
101	0x3d92b746	0.07163863
102	0x3dd52ca4	0.10408905
103	0x3d9a1856	0.07524173
104	0xbeacb8d2	-0.33734757
105	0xbeb037f6	-0.34417695
106	0xbf00bb6c	-0.50285983
107	0x3e128c54	0.14311343
108	0xbd026bab	-0.03184096
109	0xbeb5be8d	-0.3549694
110	0xbef312a7	-0.47475168
111	0x3e11c637	0.14235769
112	0x3f319918	0.6937423
113	0x3ec55a88	0.38545632
114	0xbefc5788	-0.4928553
115	0xbdc9f51e	-0.098612055
116	0xbe09f8ef	-0.13473867
117	0xbee4667a	-0.44609433
118	0x3ed8678e	0.42266506
119	0x3e4a8c66	0.1978012
120	0x3e0ce0fc	0.137577
121	0x3ea3baf8	0.31978583
122	0xbf0b2259	-0.54349285
123	0xbe19f912	-0.15036419
124	0x3e787872	0.24264696
125	0xbdc690a3	-0.09695556
126	0xbe6e2b94	-0.23258811
127	0xbd9ab54a	-0.075541094
128	0xbe0d9a64	-0.13828427
129	0xbdb7d48e	-0.089760885
130	0xbdab565b	-0.083660804
131	0x3e8fba44	0.28071797
132	0x3de5cb02	0.11220361
133	0xbe277a88	-0.16355336
134	0x3db74ffe	0.08950804
135	0x3d933d6c	0.0718945
136	0x3d11f4ac	0.035633728
137	0xbef17dc9	-0.4716628
138	0xbd7d75c6	-0.061879896
139	0xbeaf3f18	-0.34227824
140	0x3ed44a8c	0.41463125
141	0x3cdb5fde	0.026779111
142	0xbe9e344e	-0.3089928
143	0x3c962090	0.018326074
144	0x3f930db4	1.1488557
145	0x3f57ea04	0.84341455
146	0x3e0af12c	0.13568562
147	0x3e9d287a	0.30694944
148	0x3d8ce662	0.068798795
149	0xbd883ddc	-0.06652424
150	0x3f85c060	1.0449333
151	0x3cea1f88	0.028579488
152	0x3ed2f8be	0.412054
153	0xbec3df30	-0.38256216
154	0x3c682f86	0.014171487
155	0x3e22aed1	0.15887
156	0xbd4039c6	-0.046930097
157	0x3de88a08	0.11354452
158	0xbecdbcac	-0.40183008
159	0x3e860ba8	0.26180768
160	0x3e5eaf28	0.21746504
161	0xbeadab98	-0.33919978
162	0x3fa617b2	1.2975981
163	0x3f9b0105	1.2109686
164	0x3f65c280	0.8974991
165	0x3f3211ce	0.6955842
166	0xbf2c3608	-0.67269945
167	0x3ddf7587	0.109110884
168	0x3f7f27ee	0.996703
169	0x3f6ba074	0.9204171
170	0x3f2573ba	0.6462971
171	0xbd879602	-0.066204086
172	0xbea1398a	-0.3148921
173	0xbe4d702c	-0.20062321
174	0x3dfaf604	0.12253955
175	0xbf6b5cc0	-0.919384
176	0xbeca0c97	-0.3946273
177	0x3eaf4b30	0.3423705
178	0x3d4f9f4c	0.050689027
179	0xbe61cf10	-0.22051644
180	0x3f1c89ae	0.6114758
181	0x3f54c686	0.8311542
182	0x3debe5cd	0.115184404
183	0x3e893603	0.2679902
184	0xbe684e25	-0.2268606
185	0xbdfee579	-0.12446112
186	0x3f8d6a4a	1.1048062
187	0x3ee679c6	0.4501478
188	0x3f19d702	0.600937
189	0x3ced7313	0.028985536
190	0xbef63bb2	-0.4809242
191	0x3d2b8706	0.041876815
192	0xbed817b1	-0.42205575
193	0x3ebd2d00	0.36948395
194	0x3e14f010	0.14544702
195	0x3d103f96	0.03521689
196	0xbde93b76	-0.113882944
197	0x3e0f6c57	0.14006172
198	0x3f97f5da	1.1871903
199	0x3f9b2946	1.2121971
200	0x3e10b7ac	0.14132565
201	0xbc264954	-0.010149319
202	0xbec70934	-0.3887421
203	0x3d9ea823	0.07746913
204	0x3f990dca	1.1957333
205	0x3f134e75	0.5754159
206	0x3faa1efb	1.3290704
207	0xbe04ae70	-0.12957168
208	0xbef41758	-0.4767406
209	0xbeab1402	-0.33413702
210	0x3e3fe79a	0.18740693
211	0xbe69203c	-0.22766203
212	0xbeb8f906	-0.3612749
213	0x3e55d67c	0.208826
214	0x3dd88ca4	0.105737
215	0x3e146508	0.14491665
216	0xbe378fd6	-0.17925963
217	0xbf41be0d	-0.7568062
218	0xbed09e64	-0.40745842
219	0xbeb80e58	-0.35948443
220	0x3e2543c5	0.16139133
221	0x3edafd24	0.42771256
222	0xbf264b00	-0.6495819
223	0xbeb17a35	-0.3466355
224	0xbf258b71	-0.64665896
225	0xbe3c7040	-0.18402195
226	0x3e5bc428	0.21461546
227	0x3e026821	0.12735035
228	0x3d85f438	0.06540722
229	0xbdde49ca	-0.10853918
230	0x3f3cb77a	0.73717463
231	0xbce2f900	-0.027706623
232	0xbe5cd15a	-0.21564236
233	0xbde94843	-0.11390736
234	0x3e16c5e6	0.1472393
235	0xbe9bce0e	-0.30430645
236	0xbe7cf334	-0.2470215
237	0xbe5a5924	-0.21323067
238	0x3ec5a9e6	0.38606185
239	0xbde78070	-0.113037944
240	0xba965600	-0.0011469722
241	0xbe5069de	-0.20352885
242	0x3ed6b71c	0.41936576
243	0x3ed210b0	0.41028357
244	0xbea23676	-0.31682175
245	0xbeae5c80	-0.34054947
246	0xbea3080c	-0.31842077
247	0xbb04c600	-0.0020259619
248	0xbddb4d50	-0.107081056
249	0xbe8cc81c	-0.2749642
250	0xbe1a49e0	-0.15067244
251	0x3da28b14	0.07936683
252	0xbd2460f6	-0.04013153
253	0x3e8b8b4e	0.2725472
254	0x3d0595dc	0.03261362
255	0xbd98675e	-0.07441591

conv2.bias f4 [2]
0	0xbf13686a	-0.575812
1	0x3f13686a	0.575812

conv2.lin.weight f4 [2, 16]
0	0xbe7ee0ac	-0.24890393
1	0xbe46ded4	-0.1942094
2	0x3e18a060	0.14904928
3	0xbe839718	-0.25701213
4	0x3e202ed8	0.1564287
5	0xbe20f74c	-0.15719336
6	0x3e2f56f5	0.17123015
7	0x3e6647a4	0.22488266
8	0x3e7e71d2	0.24848107
9	0x3dbcdd01	0.09221841
10	0x3ebd23d2	0.3694139
11	0x3b226742	0.0024780785
12	0xbe83f8cc	-0.25775754
13	0x3f0bd200	0.5461731
14	0x3cda15de	0.026621755
15	0xbef5271a	-0.47881395
16	0xbe4cad70	-0.19988036
17	0xbe7f8ddf	-0.24956463
18	0x3e9a6000	0.30151367
19	0xbe937f02	-0.28807837
20	0xbe4e922b	-0.20172946
21	0xbe08fe48	-0.1337825
22	0x3ecad3eb	0.39614806
23	0x3eda2a96	0.42610615
24	0x3e66732c	0.22504872
25	0x3d30b6d5	0.043143112
26	0x3eac952a	0.33707553
27	0xbd86399e	-0.06553958
28	0xbe74c399	-0.2390274
29	0xbf0a26c8	-0.53965425
30	0xbea65b10	-0.3249135
31	0x3e29b4fe	0.1657295
