wifi_traffic_dataset/aggregated_global_model.pt (torch, 3728 bytes, 4 tensors)

conv1.bias f4 [16]
00000000: 0000 0000 b0a9 97bc 8e8c 063b 226a d93b
00000010: 9745 e0bc 23c8 153b baa9 0d3d 2a5b c1bc
00000020: 95a8 01bc d2e1 8dbc dac0 e2bc 26a1 17bd
00000030: 10d7 e33c 4bae 9911 2ef5 a8bc a400 84ba
0.0 -0.01851353 0.0020530554 0.0066349665 -0.027376933 0.0022854886 0.034585692 -0.02360304
-0.007913728 -0.017319594 -0.02767985 -0.037018918 0.02781251 2.424656e-28 -0.020624723 -0.0010070992

conv1.lin.weight f4 [16, 18]
00000000: 8eec 20bc a45c faba 5e4c d6bc b2ff 6d3c
00000010: 0a7e 5e3c 9d44 68ba a644 1ebc a3e5 d8bc
00000020: b253 f33c 6ff7 02bd 1825 903c dba0 6cbc
00000030: dec2 a9bc f0d6 fc3b b2c6 b6bc f823 223c
00000040: 7632 0a3c 4ea0 02bd 074a 143d f24a 463d
00000050: aaf1 353d be7d 8c3c 44fc 41bd 11db 7ebc
00000060: 0123 393d 0b37 663c f432 3e3d 2bca ea3c
00000070: 7c53 fcbc eb17 8cbb 1069 723b 46cc a4bb
00000080: 6a7f 303c b65b 2eba e6e4 85bc 2464 3cb9
00000090: 904f fa3b 4e78 893c ce4e 883b 65e9 7abc
000000a0: 07fe ac3b 9c18 1bbd a866 6bbd 2471 6ebd
000000b0: a636 ab3c 2040 d83b eb40 3abd 2a39 46bb
000000c0: 5b6c 8f3c b61d 643d 52ee 763c e8a3 503c
000000d0: 9542 01bd a8f4 10bd e97b 5d3c b173 103b
000000e0: 708a 3fbd 9743 9a3c da0c e73c 156e e33c
000000f0: 2c4c 48bd d1fd 11bc 613d 17bd 0b28 493c
00000100: 7cb7 d3bc 8ac2 84bb 803a 813b 05a9 253d
00000110: 57b9 15bd d890 8c39 54ee 53bd a113 39bc
00000120: a8b0 95bc 4a82 ddbc 0ad6 5abd 08ef 863c
00000130: cc51 89bb 662d 553c a497 3e3d 2491 d4bc
00000140: 9e75 65bc ae7a bbbc 742f 41bd b67c 783c
00000150: bccc 25bd b863 9ebc 4c7e d3bc aa23 32bd
00000160: 327d 543c cddd 9a3c b285 213d ea06 283d
00000170: c45e 443d 27b7 c8ba c7fd 323c c974 c83c
00000180: 1ee5 b03c 9b12 473d 7683 f73c 2d9e 933c
00000190: 669d 86bc 8467 523c 2c14 7abb 8d22 c5b9
000001a0: 94f9 e7bc 8332 f4bc 20ea f8bc 20dd a43c
000001b0: 49f5 013c 2e01 dbbc 22b3 1abd a326 a63c
000001c0: 7821 683d a5e4 f93c 5aed 2abd 6a59 4a3c
000001d0: adf3 8bbb d6b9 2dbd 5992 163d faa1 c13c
000001e0: 008f f036 f06f 153d 4544 22bd 290b 67bc
000001f0: 4c56 de3c 72b1 e8bb 70c0 48bc d304 bc3b
00000200: 3497 9ebb a5a1 5039 9850 82bc 8519 c23c
00000210: b77e b43c 4b7e d6bb eb8c b63c 75f4 b43b
00000220: 18b5 973a b370 4dbd a657 dabc 74b3 43bd
00000230: 5ca0 94bb dc44 79ba 468f 15bd 5a01 a0b7
00000240: 9c68 913d 6cae 213d 252d 04bc 873b d93b
00000250: 5c60 413c aefc 92bc 6a96 713d 172d 79bc
00000260: 9e24 9abb e5ba 21bd 24c8 89bb a440 d33c
00000270: ee91 acbc ce26 173d 1cf3 54bc bafd c23c
00000280: 35e4 633c 0975 14bd d6e0 a03d 9406 873d
00000290: 2287 973d 3a05 5a3d 8cd6 4bbd 0b27 5a3c
000002a0: 6ac4 373d 04ae 513d 1a84 093c 03bf 36bc
000002b0: d665 fabc 66bc 8fbc 1129 b03c e5e9 57bd
000002c0: c9a6 593b cc71 063d 7903 d33b f469 d1bc
000002d0: be5f 35ba 9f1c bf3c 0aba 8d3c 2763 123d
000002e0: 3f99 1a3b 3942 b3bc ce5f 533d d75d 06bc
000002f0: 9525 8bb9 b3ab 8b3b fcd1 35bd bca9 503b
00000300: 2dd1 4cbd 28f3 b4bc 5638 88bc 6a73 aa3b
00000310: 84d5 5abc b74f 863c 13c4 853d 7aff 823d
00000320: dd34 0a3b 9d10 57bc fade 18bd 3a2f cebb
00000330: d92f 7d3d a274 ce3b 56df 9b3d ee9a 2dbc
00000340: 4638 4cbd 60d7 e9bc 81dd a33c da73 a73b
00000350: 30d4 37bb 8c89 a93c 47ae 683c ec24 943c
00000360: 9aff 0c3c 90aa 50bd 1286 31bc 1301 c9bb
00000370: 7512 833c c44a 303d a261 24bd aac4 a0bb
00000380: 7a9c 22bd 2612 94bc 03b1 c33c d35b 5c3c
00000390: a6ec be3b 80eb e73a 914d dc3c a6e6 4ebb
000003a0: 22e7 0cbc 99ed 35bc 54a7 763c a8e2 febc
000003b0: 61e7 cebc cf99 b2bc 7eae 213d 225c 3dbc
000003c0: 46f0 f5b8 8079 aabc 12a1 2f3d 5ad3 2b3d
000003d0: 1faf 04bd 059f 0ebd 8e5a 05bd 2535 59b9
000003e0: 8861 33bc f64e e6bc a067 7cbc 56f4 043c
000003f0: 13dc 87bb 636b e23c 682e a83b f458 b8bb
-0.009822024 -0.0019101095 -0.026159462 0.014526295 0.013579855 -0.0008860322 -0.009659922 -0.026476687
0.029702995 -0.031974252 0.017595813 -0.014442648 -0.020722803 0.0077160522 -0.022311542 0.009896271
0.008434882 -0.03189116 0.03620341 0.048411317 0.044419922 0.017149802 -0.04735972 -0.015555159
0.045199398 0.014051209 0.04643531 0.028660854 -0.030801527 -0.004275312 0.0036988892 -0.005029234
0.010772565 -0.0006651239 -0.016344499 -0.00017966382 0.007638879 0.016780999 0.004159785 -0.015314435
0.005279306 -0.037865266 -0.057470948 -0.058213368 0.020900082 0.006599441 -0.045472067 -0.0030246475
0.017507723 0.055692397 0.015071468 0.012734391 -0.03155764 -0.035389572 0.013518312 0.0022041614
-0.046762884 0.018831057 0.02820437 0.027762452 -0.04890077 -0.008910612 -0.03692377 0.012277613
-0.025844328 -0.004051511 0.0039437413 0.040444393 -0.036553707 0.00026810798 -0.05174096 -0.011296184
-0.018272713 -0.027039666 -0.05342678 0.0164714 -0.004190659 0.013011312 0.046531335 -0.025948115
-0.014005093 -0.022885647 -0.047164395 0.015166452 -0.040478453 -0.019334659 -0.025817059 -0.043491043
0.012969302 0.018904591 0.039434142 0.04102222 0.047941938 -0.0015313373 0.010924763 0.02446975
0.021593627 0.048601728 0.030214053 0.01801976 -0.016432475 0.012842063 -0.0038158996 -0.0003760051
-0.02831725 -0.029809242 -0.030385077 0.020124972 0.007932016 -0.026733961 -0.03776849 0.020282095
0.056672543 0.030504534 -0.041730262 0.01235042 -0.004270992 -0.042413555 0.03676066 0.023636807
7.1692048e-06 0.036483705 -0.03961589 -0.014101782 0.027140759 -0.0071012313 -0.012252912 0.00573788
-0.004839802 0.00019896643 -0.01590757 0.02369381 0.022033079 -0.006545817 0.022283992 0.0055223056
0.0011574356 -0.050156306 -0.026653122 -0.04777856 -0.004535718 -0.0009508857 -0.03651359 -1.9074116e-05
0.07100031 0.039472982 -0.008067404 0.0066294107 0.011802759 -0.017942753 0.058981337 -0.015208504
-0.004704072 -0.039484877 -0.004204767 0.025787659 -0.021065678 0.03690224 -0.012997415 0.023802627
0.013909389 -0.036244426 0.07855384 0.065930516 0.073988214 0.05322764 -0.049765155 0.013314973
0.04486505 0.051191345 0.008393312 -0.011153939 -0.030566137 -0.01754589 0.021503957 -0.052713294
0.0033210984 0.03282337 0.006439623 -0.025563218 -0.0006918869 0.023329077 0.017300624 0.03573909
0.0023589877 -0.021882163 0.05160504 -0.008201084 -0.00026540147 0.0042624115 -0.04438971 0.003183945
-0.050004173 -0.022088602 -0.016628426 0.0052017467 -0.01335657 0.016395433 0.06531539 0.063963845
0.0021088638 -0.0131265195 -0.037322022 -0.006292251 0.06181321 0.006300525 0.07610957 -0.01059602
-0.049858354 -0.028545082 0.020003082 0.005110246 -0.0028050058 0.02069547 0.014201707 0.018084012
0.008605862 -0.05094391 -0.0108351875 -0.0061341613 0.016000012 0.043040052 -0.040132172 -0.0049062567
-0.03970001 -0.01807506 0.023888117 0.013449627 0.0058265505 0.0017694086 0.026892455 -0.0031570583
-0.008600028 -0.011104011 0.015054543 -0.031113937 -0.025256814 -0.021801857 0.03947305 -0.011557611
-0.00011727265 -0.020809889 0.042878218 0.041949607 -0.03239357 -0.03481962 -0.032557063 -0.0002071453
-0.010948546 -0.028113823 -0.0154055655 0.008114895 -0.004146108 0.027639097 0.005132485 -0.0056258384

conv2.bias f4 [2]
00000000: 6be7 25bd 6ae7 253d
-0.0405039 0.040503897

conv2.lin.weight f4 [2, 16]
00000000: 2f2d eebc 46f6 86bc e2ae 643c ec07 cfbc
00000010: c3f0 043d 4be3 46bc 6040 c23c ac00 073d
00000020: 734d 173d 1402 443c d446 203d 8740 60ba
00000030: 7474 fdbc 5bbc 643d cb3f 843b d451 3ebd
00000040: 34ac 89bc 95bd ecbc a894 033d a588 f9bc
00000050: 1cd0 17bd 9c46 90bc 9c7d 0c3d 5f1f 0a3d
00000060: 9c5f 3c3c 00fc f53a 6099 073d 943f b7bb
00000070: 3ca6 a2bc 7301 62bd 7374 0dbd 8fcd 6c3c
-0.02907428 -0.016474854 0.013957711 -0.025272332 0.03245617 -0.012139152 0.023712337 0.032959625
0.036939096 0.011963386 0.039130047 -0.0008554537 -0.030939318 0.055843692 0.004035925 -0.046464756
-0.016805746 -0.028898994 0.03212419 -0.030460665 -0.037063703 -0.017611794 0.034299478 0.033721324
0.011497404 0.0018767118 0.033105254 -0.005592296 -0.019854657 -0.055177163 -0.034534883 0.014453306
